data.pth (torch, 5418 bytes, 6 tensors)

l1.weight f4 [8, 54]
-0.019329704 0.54397786 0.47908354 0.2950821 0.45272693 -0.27833205 0.40271804 0.44663206
0.5783261 0.50503993 0.26778814 0.00023620814 0.1781649 -0.035954524 0.45427155 -0.15670128
0.24864873 -0.36197373 -0.30364463 0.34938845 0.16681713 0.5327514 0.3226419 0.16477895
0.10807346 0.17346777 -0.4848233 0.48783422 -0.26017982 0.48022366 0.19362494 -0.19907634
-0.16148582 0.51619965 0.6063166 -0.10195512 -0.10418512 0.5971967 0.4398448 0.4308688
0.16419122 -0.6065218 -0.046183042 0.41388595 -0.05778316 0.4669432 -0.23961285 0.06051534
0.17793864 -0.5151392 -0.17816363 -0.3330771 0.4079876 0.21032768 -0.15070362 -0.29019567
0.5976946 0.19156925 0.35720634 0.85287625 0.4157182 0.5161661 0.5971695 0.50538725
0.22216812 -0.3247885 0.24799034 -0.24540816 -0.19327697 -0.102370754 0.19408163 0.9737196
0.06543656 0.2700982 -0.2954274 0.32407078 0.3442569 -0.022157976 0.12860669 0.16646285
0.098638654 -0.4588776 -0.08757174 -0.25839633 0.3492818 -0.17472745 0.00043216159 0.39006835
-0.15493934 -0.30607247 -0.22217418 0.3882678 0.522874 0.42484647 0.2552346 0.12306415
-0.116483316 -0.1475947 0.058606047 -0.09520832 -0.5898892 -0.14398818 0.0984873 -0.008148258
-0.19347754 0.14650816 0.3072609 0.16920495 0.36786616 0.12561025 -0.45112395 0.27786756
0.14103878 0.21193346 -0.27894986 -0.28556356 -0.65178156 -0.046652656 0.22827508 -0.34429285
-0.33879495 -0.27041832 0.13198166 -0.026300699 0.2912353 0.3419805 0.21966715 0.47715086
0.20175095 0.40332064 0.32213798 0.53620094 -0.14777228 0.40927118 0.11987064 -0.08877006
0.08866692 0.107674 0.390883 -0.3712577 0.29278785 -0.22713263 -0.07240819 0.08163591
0.112848006 -0.50594854 -0.04754436 -0.27384138 0.3795497 0.0032415427 -0.34436932 -0.07503803
-0.3463942 -0.06700502 0.115047686 0.0403317 0.37005863 0.15859956 -0.13027537 0.1361426
-0.048669044 0.2207271 0.74743795 -0.077460766 -0.42581627 -0.3142858 -0.16857076 0.59615713
-0.0047175437 -0.42288327 -0.3210301 -0.38438845 -0.14942752 -0.10257243 0.19448139 -0.03430695
-0.18755738 -0.16916761 -0.34454098 0.4625341 0.5935557 -0.4216626 0.6286786 -0.39199457
-0.4939893 -0.4443207 -0.2049349 -0.12749882 0.63412035 -0.30407166 0.61292595 -0.49345955
0.37231874 -0.07734768 0.4320879 -0.57875985 -0.12770417 -0.010192089 0.4722315 -0.322588
-0.15883146 0.028010413 0.43382543 0.502642 -0.077514835 -0.18397142 -0.19732207 -0.010424956
0.8933814 0.44184732 0.3124646 0.78709644 -0.20195323 0.5816812 -0.15770128 0.31613147
0.6196289 0.25616717 0.3496309 -0.37210286 0.055194993 0.5568893 0.31961757 0.39291832
0.50532216 0.17186224 -0.22396223 0.4515966 0.7067753 0.39007917 0.19195169 0.3007652
-0.15059762 0.61112297 0.23302196 -0.37452674 0.25396398 -0.3715738 -0.36408454 -0.3622762
0.4949645 -0.17650458 0.49358878 0.025043275 0.27587014 -0.22914523 0.54062235 0.50666416
0.37542176 0.3197471 0.29211384 0.38220164 0.32416907 0.55366653 0.3424969 0.34016576
00000000: 5459 9ebc 2242 0b3f 704a f53e 0015 973e
00000010: d3cb e73e 8a81 8ebe 0f31 ce3e f5ac e43e
00000020: 2e0d 143f 4c4a 013f 871b 893e a4ae 7739
00000030: dc70 363e 0d45 13bd 4896 e83e 4d76 20be
00000040: c69d 7e3e 9f54 b9be 4f77 9bbe 0be3 b23e
00000050: 1cd2 2a3e 6562 083f 5231 a53e d0bb 283e
00000060: 9e55 dd3d 89a1 313e c23a f8be 68c5 f93e
00000070: 4a36 85be e0df f53e 9e45 463e abda 4bbe
00000080: 8a5c 25be a925 043f 9137 1b3f d9cd d0bd
00000090: 025f d5bd e2e1 183f 5633 e13e d69a dc3e
000000a0: be21 283e 0345 1bbf 6e2a 3dbd dce8 d33e
000000b0: 09ae 6cbd 2e13 ef3e 125d 75be efde 773d
000000c0: 8c35 363e 2ae0 03bf 8770 36be 1589 aabe
000000d0: c0e3 d03e 2460 573e 0d52 1abe 8794 94be
000000e0: 8302 193f bb2a 443e c0e3 b63e 1956 5a3f
000000f0: 04d9 d43e 7623 043f 1ae0 183f 0f61 013f
00000100: 0a80 633e ae4a a6be 2ef1 7d3e 474c 7bbe
00000110: 66ea 45be c2a7 d1bd 56bd 463e b045 793f
00000120: 9a03 863d 504a 8a3e 4342 97be 9bec a53e
00000130: 7142 b03e a584 b5bc 79b1 033e 3d75 2a3e
00000140: 1003 ca3d 01f2 eabe d058 b3bd 864c 84be
00000150: 10d5 b23e c1eb 32be bf93 e239 0ab7 c73e
00000160: 6ba8 1ebe 88b5 9cbe a181 63be 09cb c63e
00000170: 12db 053f 7a85 d93e 1cae 823e 0f09 fc3d
00000180: ce8e eebd 1123 17be e50c 703d 94fc c2bd
00000190: fb02 17bf a371 13be b6b3 c93d 4580 05bc
000001a0: fa1e 46be 3c06 163e 4d51 9d3e 1044 2d3e
000001b0: f458 bc3e f99f 003e b8f9 e6be a844 8e3e
000001c0: 786c 103e 1605 593e 84d2 8ebe 6335 92be
000001d0: 28db 26bf db16 3fbd f1c0 693e 2747 b0be
000001e0: 8876 adbe 4574 8abe 3326 073e 9074 d7bc
000001f0: cb1c 953e 1118 af3e 6df0 603e 1e4d f43e
00000200: cd97 4e3e 0b80 ce3e 45ef a43e 7744 093f
00000210: 9e51 17be fe8b d13e bd7e f53d 14cd b5bd
00000220: 0197 b53d 3084 dc3d d121 c83e 7d15 bebe
00000230: 4ae8 953e 7595 68be bf4a 94bd ba30 a73d
00000240: db1c e73d d885 01bf e0bd 42bd f034 8cbe
00000250: 5754 c23e 1070 543b 2d51 b0be 8aad 99bd
00000260: 955a b1be ee39 89bd 1f9e eb3d da32 253d
00000270: 5378 bd3e ec67 223e e866 05be f768 0b3e
00000280: 3159 47bd 4906 623e 1858 3f3f c0a3 9ebd
00000290: 9704 dabe 12ea a0be d09d 2cbe c19d 183f
000002a0: a095 9abb 2884 d8be 0f5e a4be 90ce c4be
000002b0: 8703 19be 7f11 d2bd 2126 473e 7285 0cbd
000002c0: 0b0f 40be 463a 2dbe ad67 b0be 45d1 ec3e
000002d0: 44f3 173f 29e4 d7be 15f1 203f 83b3 c8be
000002e0: 2aec fcbe 017e e3be 74da 51be 0d8f 02be
000002f0: b655 223f 48af 9bbe b7e8 1c3f bba6 fcbe
00000300: 90a0 be3e 7668 9ebd a03a dd3e 9b29 14bf
00000310: e2c4 02be b8fc 26bc 54c8 f13e 412a a5be
00000320: b7a4 22be 1876 e53c 5e1e de3e 25ad 003f
00000330: 19c0 9ebd 0163 3cbe cc0e 4abe 6fcd 2abc
00000340: a5b4 643f d039 e23e 5cfb 9f3e 277f 493f
00000350: d4cc 4ebe 0fe9 143f 727c 21be fcdb a13e
00000360: 00a0 1e3f 5828 833e d202 b33e 4484 bebe
00000370: 2514 623d 4c90 0e3f eaa4 a33e 972c c93e
00000380: cb5c 013f a8fc 2f3e 5b56 65be ab37 e73e
00000390: 3aef 343f 75b8 c73e fc8e 443e e5fd 993e
000003a0: 4336 1abe 8e72 1c3f 4f9d 6e3e f8c1 bfbe
000003b0: 9107 823e ec3e bebe 4a69 babe 447c b9be
000003c0: fd6b fd3e 9ebd 34be abb7 fc3e 8e27 cd3c
000003d0: da3e 8d3e 0ca5 6abe 3a66 0a3f beb4 013f
000003e0: 4837 c03e e4b5 a33e f28f 953e efaf c33e
000003f0: 7df9 a53e 17bd 0d3f c15b af3e 352a ae3e

l1.bias f4 [8]
0.7335593 0.58994406 0.7963189 0.49388534 0.37451115 0.54370457 0.4536605 0.604336
00000000: 8bca 3b3f 9306 173f 8edb 4b3f 8ade fc3e
00000010: edbf bf3e 3930 0b3f 3046 e83e c4b5 1a3f

l2.weight f4 [8, 8]
0.56685334 1.2799274 0.24639057 -0.3900091 0.50574374 0.47560963 -0.6975203 1.0565244
0.62342453 -1.1119361 0.10769819 -0.2586679 0.4106608 -0.22678678 1.1129326 -0.5473594
1.0566949 -0.4014932 0.11663409 0.44710734 0.6376908 -1.1113074 0.5636526 -0.68008816
0.56457895 0.42176396 -0.9125824 -1.0095822 1.1046526 0.314776 0.5819826 0.20157592
-0.9328019 0.6471264 0.9046957 1.3606622 1.1938274 0.6136871 0.047023706 -0.6317457
1.0633607 1.0452207 1.0452358 -0.7213388 -0.26774174 -0.10400217 -0.00044315655 1.0372779
-0.7715657 -0.6284187 0.10966138 0.8322832 0.8566679 0.82411295 0.8260854 -0.9200681
0.736007 0.05803892 1.0550646 -0.9578099 -1.3461778 0.2073346 -0.3938367 0.66712886
00000000: 4d1d 113f a9d4 a33f cf4d 7c3e 46af c7be
00000010: 6c78 013f 1b83 f33e b190 32bf 313c 873f
00000020: c098 1f3f ec53 8ebf de90 dc3d 1e70 84be
00000030: 2242 d23e cb3a 68be 9374 8e3f bf1f 0cbf
00000040: c741 873f 8490 cdbe dbdd ee3d 41eb e43e
00000050: b43f 233f 523f 8ebf 894b 103f 421a 2ebf
00000060: 3f88 103f 72f1 d73e 009f 69bf fd39 81bf
00000070: 4265 8d3f 522a a13e d0fc 143f eb69 4e3e
00000080: 1bcc 6ebf 13aa 253f 239a 673f 2e2a ae3f
00000090: 56cf 983f 991a 1d3f ee9b 403d 16ba 21bf
000000a0: 341c 883f cbc9 853f 49ca 853f a9a9 38bf
000000b0: 7215 89be 17ff d4bd 7757 e8b9 86c5 843f
000000c0: 5485 45bf 0ce0 20bf 2596 e03d 8310 553f
000000d0: 964e 5b3f 11f9 523f 557a 533f 9589 6bbf
000000e0: f46a 3c3f 38ba 6d3d 5b0c 873f 0833 75bf
000000f0: 8e4f acbf 854f 543e f7a4 c9be f5c8 2a3f

l2.bias f4 [8]
0.27275446 0.5420208 0.29522762 -0.32738838 0.31815258 0.45409265 0.3714229 0.02253422
00000000: 79a6 8b3e e0c1 0a3f 1328 973e 739f a7be
00000010: e5e4 a23e d57e e83e 242b be3e af99 b83c

l3.weight f4 [7, 8]
-0.72822535 0.42060235 -1.1523441 0.638691 -0.1882445 -0.7882806 0.4860959 -0.40944096
-0.77792627 0.62140757 0.6745639 0.31812826 -0.8668993 0.3264958 -0.702972 -1.0049769
0.48576024 -0.8529631 -0.38646337 -1.2634231 0.3737518 0.19695996 -0.49069646 -1.7128239
0.13910212 -0.43101877 -0.9155569 -0.8484026 -1.3517005 0.76475614 -0.76742256 1.2233423
-0.43104473 -1.1229296 -1.3852991 -0.56332344 0.7831334 -1.2904717 0.39462394 -0.7681697
0.33473495 -0.6961833 -0.08151171 1.050793 -1.0871769 0.20051153 -0.86405253 -0.8022092
-1.4177465 0.4306755 0.58774525 -1.1096689 0.35808077 -0.61528766 0.21202499 -0.28098372
00000000: fa6c 3abf 3159 d73e 0380 93bf 4181 233f
00000010: 2bc3 40be c2cc 49bf 90e1 f83e 3fa2 d1be
00000020: 2d26 47bf 9114 1f3f 38b0 2c3f b5e1 a23e
00000030: 1ded 5dbf 752a a73e f9f5 33bf 15a3 80bf
00000040: 91b5 f83e ca5b 5abf 87de c5be d9b7 a1bf
00000050: 655c bf3e dfaf 493e 913c fbbe d03d dbbf
00000060: c970 0e3e 7eae dcbe f061 6abf ea30 59bf
00000070: 8604 adbf 0fc7 433f ce75 44bf 7b96 9c3f
00000080: e5b1 dcbe 28bc 8fbf 7b51 b1bf f735 10bf
00000090: 6e7b 483f 2d2e a5bf 260c ca3e c5a6 44bf
000000a0: 6162 ab3e 1239 32bf 9def a6bd 6380 863f
000000b0: 9d28 8bbf e552 4d3e 8c32 5dbf 955d 4dbf
000000c0: b878 b5bf 8081 dc3e 7976 163f a109 8ebf
000000d0: 5d56 b73e 7e83 1dbf 141d 593e 19dd 8fbe

l3.bias f4 [7]
-0.2917986 -0.43601584 0.28323486 0.04062334 -0.17742568 -0.16990009 -0.041090675
00000000: a066 95be 783d dfbe 2904 913e a964 263d
00000010: 14af 35be 4afa 2dbe b24e 28bd
